outputs/models/Deep_SELEX.pth (torch, 871202 bytes, 10 tensors)

conv1.weight f4 [512, 4, 8]
00000000: 24fa 68be 1e2f 32be 1cb2 1f3e 00b4 653e
00000010: 6cdd 94bd 967e 0b3d 43de 9dbe b53d 863e
00000020: c544 96be dfc5 bf3e 5dd2 723d 27b5 c9bd
00000030: 1d10 bfbe a588 21be 395e 1dbf 0500 a0be
00000040: 988c 703e bea5 fcbe 0477 a2bd 8782 82be
00000050: d787 283e cff9 5a3e 1ce2 8d3e 4a93 3cbe
00000060: c600 ff3d cb7f 03bf 72a1 b1be 1c88 293d
00000070: 4e6d babd 39cc 01bf 5d7e 51bd 98b8 e1bd
00000080: 7cb9 2dbf 2890 bfbe 9043 fabd 724f 423e
00000090: 194a 0abe f0d3 8bbe fa79 b13c 87c1 f6bd
000000a0: dfbb b7bd 8b38 c13e 3a51 9fbd 419f b7be
000000b0: 05e4 24bf 47f1 33be 4079 0dbe 8e62 78be
000000c0: 30ca 993e 7933 09bf eb21 783d d322 913e
000000d0: 9de6 053f 4abd 283e 56ba 233d dc37 2dbe
000000e0: ffb8 abbc 7e01 253e ae24 893d cc49 e6be
000000f0: 6ab6 eebe 567a 9abd f3d1 cd3e 041f bc3e
00000100: 5f71 d0bd a299 ffbd 8491 9cbe 9168 c7be
00000110: 53a2 98be f4eb 41be 7d17 72be 6581 15be
00000120: 7368 76be 4680 3fbe 69a9 a0bb fd17 503d
00000130: ff31 fcbd 373a bcbd effe 8ebe 41c8 d63d
00000140: 9b33 6cbe 8ecc bebe 5e69 513d 5e29 25bd
00000150: c878 3fbe dec9 ee3d eff0 3cbc 98ed f23c
00000160: 4cd8 2fbe 61fe c7bd 6c6c 25be 3824 a83d
00000170: df92 14be a26d 29be 78bb 97be 7c82 a5bd
00000180: 5368 b6be 0b93 463e a877 fa3d 5193 c63d
00000190: a94b 53bf 13e2 283e 9a44 883d f2ba 223e
000001a0: f196 bf3e 76a0 7f3d cf01 7abe 9de7 f73c
000001b0: 00a0 dabe a8bc 7bbe 074a 373e 7ea0 c63b
000001c0: b883 593c a72a 22bd cf2c 81be 438b c43d
000001d0: 7a35 c93e 7772 12be 3859 00bf 2f17 1fbf
000001e0: 7467 6fbe 275b abbd 7d30 053e fd3b d6be
000001f0: d5d7 d1be 4934 23bf 8771 17bb c1f3 8f3e
00000200: d18f 35be dca4 2fbe ac20 18be 22bb adbd
00000210: 3dae 60be ba50 06be 20df e43c 298b 91be
00000220: e18d 713b 08cb 27be 9670 d8bd 5b2a 61bd
00000230: af6a ee3c 118b c6bc f25d a5bb a25f fc3b
00000240: 9ef9 4e3d f4d3 d63b 3a5a 1abd 542d 1ebe
00000250: 799f 03be d4d6 ce3c aa13 d73c c190 f0bb
00000260: e604 053d ee32 b1bd 13df 96bd 77df 3fbe
00000270: 1f9b c0bd 51f4 e1bd dc1e 9c3d 8a84 8f3d
00000280: 87ad 18bf bca8 d3bd e2cf 59bf 2fdc fd3e
00000290: 81b5 41be 8ca4 44bd dc79 83be e343 d9bd
000002a0: 7c92 9bbe 1a3d 5d3d 7d8c 253e 35cd 89be
000002b0: ab0e adbe a5ad c63d a9e2 5e3d 7492 223e
000002c0: d876 093f c2d4 373e e157 273e 79aa 10bf
000002d0: d547 0a3f 7653 8fbd 95e7 1abf 2cd1 6e3e
000002e0: 3656 18bf 2956 dabe 9f26 a4be b985 593d
000002f0: a3a4 b8be 9455 b5bd 5839 493e 9163 c8be
00000300: ad6a 2dbe 1c53 9bbe 9a18 a8bd c4c0 4dbb
00000310: 8433 4a3e d7a2 fc3d 198b f83b fdba 35be
00000320: ad7c c0be 9b90 423e 7882 08bf 9dce 86be
00000330: d231 23bf 3192 c3be 67e5 4ebd 50c7 fabe
00000340: 286d 16bb fd44 11bf 48e4 4abc 9239 4cbd
00000350: 95b4 fe3d 3bae 86be dc34 a5be 37a8 f1be
00000360: 18dd 7cbe fc1d 4abe 8a86 093c fc28 cebd
00000370: 762a efbe 5cff 95be 5b1e 8dbe 711e 5c3e
00000380: 076a 6fbe f1ef 7d3e 2a30 683b 17c2 b5be
00000390: 69ab c8be 1c22 8e3d 6098 bdbe c40e eb3d
000003a0: 4073 cc3d 75dc 9fbe c8f6 c7bd c51d a2be
000003b0: 9194 7bbe a28d 123d 47e3 22bf 9bfc 08bf
000003c0: 57f4 8dbc 7a55 9ebe 04e2 b2bc f92d 5c3e
000003d0: dd8d 1e3d a3ec 03be d43c 933e 971b bb3e
000003e0: 3ff8 46be 1971 ccbe 1b88 04be 3e4e 723e
000003f0: 33ec 27be 830c 0fbe d130 36bf bd09 2dbd
-0.22751671 -0.17400786 0.15595287 0.22431946 -0.07268795 0.03405627 -0.30833635 0.26218954
-0.29349342 0.3745565 0.05928265 -0.09849005 -0.3731698 -0.15774782 -0.614719 -0.31250015
0.23491132 -0.493452 -0.07932857 -0.2549021 0.16458069 0.21384357 0.2771157 -0.18415561
0.124513194 -0.5136687 -0.34693485 0.04138957 -0.091028795 -0.50702244 -0.0511459 -0.110215366
-0.6786115 -0.3741467 -0.12219918 0.18975618 -0.13504829 -0.27310133 0.021664608 -0.12048631
-0.089713804 0.3773845 -0.077791646 -0.3586369 -0.6441043 -0.17572509 -0.13815784 -0.24256346
0.3003707 -0.53594166 0.06057922 0.2834688 0.5230501 0.16478458 0.039972626 -0.1691584
-0.020962236 0.1611385 0.06696449 -0.44978178 -0.46623546 -0.07542865 0.4019924 0.36742413
-0.10177874 -0.12480475 -0.3057977 -0.38946965 -0.29811344 -0.18937665 -0.23641773 -0.14600141
-0.24063282 -0.18701276 -0.0049030078 0.050804127 -0.123142235 -0.09190791 -0.27928874 0.10487414
-0.23066561 -0.37265438 0.051125877 -0.040322654 -0.18698418 0.11659597 -0.011532052 0.02965431
-0.17172354 -0.09765316 -0.16154641 0.08210033 -0.14509152 -0.16545728 -0.29635215 -0.080815285
-0.35626468 0.1939203 0.12229854 0.09696067 -0.82537323 0.1649249 0.0665371 0.15891626
0.37419847 0.062408887 -0.24414752 0.030261809 -0.42700195 -0.24583685 0.17899333 0.0060616126
0.013276033 -0.039591458 -0.252295 0.095968746 0.39298612 -0.14301477 -0.50136137 -0.6214475
-0.23379308 -0.08366995 0.13006778 -0.41842642 -0.4098498 -0.63751656 -0.002310844 0.28115657
-0.17730643 -0.17152733 -0.14856213 -0.084829584 -0.21941467 -0.13116732 0.027938426 -0.28426483
0.0036858248 -0.16386044 -0.10568349 -0.054972034 0.029103605 -0.024236234 -0.0050465995 0.00770183
0.050531022 0.0065560285 -0.037683703 -0.15446979 -0.12853803 0.025248922 0.026254494 -0.0073414748
0.032475375 -0.08652292 -0.07366767 -0.18737589 -0.09404587 -0.11032928 0.076230735 0.07007702
-0.5963978 -0.10334918 -0.8508283 0.4958205 -0.18916894 -0.048008487 -0.2567891 -0.106086515
-0.30385196 0.05401335 0.16166873 -0.26914373 -0.33800253 0.09701089 0.05441538 0.1587618
0.53696966 0.17952254 0.16342117 -0.5651012 0.54015857 -0.06998341 -0.60509616 0.2332198
-0.5950655 -0.4264386 -0.32060716 0.053106043 -0.36063108 -0.08854213 0.19650781 -0.39138463
-0.16935225 -0.30336845 -0.082078174 -0.0031395415 0.19746214 0.12335747 0.007584941 -0.17747112
-0.3759512 0.19000475 -0.5332408 -0.26329508 -0.63747895 -0.38197473 -0.050511744 -0.48980188
-0.0022953246 -0.5674589 -0.012383528 -0.04985959 0.12436787 -0.26304802 -0.3226689 -0.4719865
-0.24693716 -0.19738 0.008393893 -0.10066411 -0.46712083 -0.29296386 -0.27562222 0.21495987
-0.2338029 0.24798562 0.0035429099 -0.3549964 -0.39193276 0.069400996 -0.37030315 0.11477426
0.0998292 -0.31222883 -0.09763867 -0.31663337 -0.24568392 0.035779603 -0.6362805 -0.53510445
-0.017328424 -0.30924588 -0.021836288 0.21501912 0.03870951 -0.12883238 0.28757346 0.36544487
-0.19430636 -0.39930037 -0.12942545 0.2366266 -0.16398697 -0.13969617 -0.7116824 -0.042245615

conv1.bias f4 [512]
00000000: e087 8fbe 3bda 64be 838d 07be 002a b2bc
00000010: dd3b 49be ca36 84bd 5785 0cbe 704c 97be
00000020: 6914 6abe d81d 28be 9803 80be f342 1abe
00000030: 9fc2 38be b43e 60be 3c4a 69be 8dc8 abbe
00000040: 2ba3 3dbe c717 6dbe 220f 8fbe 8e49 9ebe
00000050: 1a6f 5bbe 7c2a f3bd 6f02 47bd 05ec 08bf
00000060: 8efe 38be 81cb cabb 7e7f cbbd 2b6b 16be
00000070: 5ad7 4fbe 5dbd 94be 75dd 9bbc 4014 d9bd
00000080: 899a 41be bbc3 bebe 8dfa 85be 319a 10be
00000090: 2447 86bd 75a4 5cbe da1b 29be e88a 81be
000000a0: f7af b7be 2296 57bd 6847 c0bd bc1c 65be
000000b0: a56c 1dbe 6444 2ebe 7f70 55be 84c8 80be
000000c0: 9574 0cbe 17f2 fabd f882 74be 9a86 55be
000000d0: b626 97bd e562 b4bd 558d 55be c3ff dcbd
000000e0: 19d8 0bbe 14ad efbe dbbd 0bbe 52fb 20be
000000f0: aa95 7ebe a98c 84be 9d58 c03d d1be 7cbe
00000100: 68d4 76be 2de4 b0be 52fb 6dbe 667d 3fbe
00000110: bea5 afbd 407a 80be c561 a9be baf0 ddbd
00000120: f7e5 91bd 366e 1fbe ea8f 953d 8011 1cbc
00000130: eb38 24be 19f7 d7bd 6ad4 85bd 9cd4 91bd
00000140: 444c 98bd 2cbb a2bd ce24 74bd cfe7 22be
00000150: e879 52be e814 e6bd 3be3 9abd bd69 72be
00000160: 07b0 d4bd 0742 25be 180a 83be 7d44 8fbe
00000170: 3440 47be 12da 1ebe 6c86 2ebe ccff 71be
00000180: 3db7 83be c974 00be 1121 9abd 6917 acbe
00000190: ac57 5ebe fdc3 65be 2589 99bd 1ca8 54be
000001a0: 891b 50be 1d1c 92be b4f7 78bd fcfd 26bd
000001b0: edf5 03bd cbd1 bcbd 1aec 35be b839 82be
000001c0: b44e e9bd ee11 e6bc b1c8 1bbd f1d5 9abe
000001d0: d5a2 b1be 0587 20be bc4b cb3c b64a 7dbe
000001e0: 8119 3abe c282 b9bd 2e2e 01bd 3c22 82be
000001f0: 6f57 c3bd 7d89 dcbd 23c0 7dbe 011b 2abe
00000200: 54ca 13be 8756 0dbe d80c 6ebd 8bdc 5dbe
00000210: 72ff 86be 15d7 88be 9895 c5be 1a32 87be
00000220: eff3 c9bd 1224 8cbe a7e8 c2be 6d8f 2abe
00000230: fb6d 013c d890 74be 1aa1 b3be c183 86be
00000240: 453c 38be 726d 8dbd f00f 7abd 9b7e 2fbe
00000250: 2863 b4be 0c18 febd 7924 f1bc 2cad ccbc
00000260: 7f1a b8bd e417 2fbe 940d 9cbe 8bca 13be
00000270: 18c2 57bc 2f9b d4bd 7802 123d 2088 73be
00000280: 1f0f 313d dc91 b1be f7f0 bfbd 2b25 3fbd
00000290: 0381 60be 0b54 78be 5a5e 4abd 77a8 aebe
000002a0: da74 70be 62dc bebe 0f69 5abe b617 15bd
000002b0: 4952 48be 2ba7 53bd b643 58be 8c91 6dbe
000002c0: fc73 00be 8371 c8be 24d9 84be 2a04 f8bd
000002d0: 0edd 68be af01 a6be d854 a6be d7e0 53bd
000002e0: 424d 6b3c 3c81 54bd 0815 a5bd e747 11bd
000002f0: 3b55 27be 5c6f 56be 268a a5be 1663 81bd
00000300: e2b2 b1be f95e c8bd 5ad7 30be 7f34 8fbe
00000310: b085 3cbe 11a6 7dbe c639 993d aff4 5dbd
00000320: 1ce4 06be c6d6 e6bc 82a5 e9bd d6c0 82be
00000330: 775b 21be cb5c 0ebe 2ba3 9abd f4be c4bd
00000340: 8df3 72be 8466 9fbe 0833 82be 88c9 5fbe
00000350: 1af0 a9bd 2912 afbe 8c7b 64be ddff b7be
00000360: b2e9 973d dbee 92be dd83 5abe 6627 833d
00000370: 22d6 a1be c34c 8bbe 27f1 2dbe f159 76be
00000380: 16ff 633c 90c3 bbbe 25cd c2bc 8fb8 34be
00000390: feb7 35be 2f0b 3cbe ca45 7abe 651a 36be
000003a0: ea39 63be 4655 75be a70d 72be 3294 223d
000003b0: 95c2 5fbe f740 78be 5548 aabe df20 3bbe
000003c0: 3ff4 64be 4d4f ea3c 1a82 a1be b33f 28be
000003d0: d1e3 06be 7b7f 1abe acaf 62bd 7d0a e83b
000003e0: dca1 8ebe 0d7e 08bd dfde 3ebe f73a 8bbe
000003f0: 3a15 98be f7ac f1bc d8c3 9ebe 8801 bbbd
-0.28033352 -0.22348873 -0.13237576 -0.021748543 -0.19651742 -0.06455763 -0.1372274 -0.29550505
-0.22859348 -0.16417634 -0.25002742 -0.15064602 -0.18042992 -0.2189892 -0.22782224 -0.33551446
-0.18519275 -0.23153602 -0.27941233 -0.30915493 -0.214291 -0.118733376 -0.048586305 -0.5348514
-0.18065855 -0.0061888103 -0.099364266 -0.14689319 -0.20296994 -0.29050723 -0.019026497 -0.105995655
-0.18906607 -0.37258705 -0.26167718 -0.1412132 -0.06556538 -0.2154711 -0.16514531 -0.2530129
-0.35876438 -0.052633412 -0.0938862 -0.22374243 -0.15373476 -0.17018276 -0.20843695 -0.2515298
-0.13716348 -0.12253206 -0.23878086 -0.20852128 -0.073804304 -0.08807925 -0.20854695 -0.1079097
-0.13656653 -0.46811736 -0.13646643 -0.15720871 -0.2486178 -0.25888565 0.09391902 -0.24682166
-0.24104464 -0.34549084 -0.23240402 -0.1870018 -0.08576535 -0.2509327 -0.33082405 -0.108369306
-0.071239404 -0.15569386 0.0730284 -0.009525657 -0.16037337 -0.10545177 -0.065346554 -0.0712063
-0.074364215 -0.079458565 -0.059605412 -0.1590874 -0.20554316 -0.11234456 -0.07562872 -0.23673148
-0.10385137 -0.16138469 -0.25593638 -0.2798194 -0.19458085 -0.15512875 -0.17043465 -0.23632735
-0.25725737 -0.1254455 -0.07525838 -0.3361161 -0.21713132 -0.22438045 -0.07496861 -0.20767254
-0.20323004 -0.28537074 -0.060783103 -0.040769562 -0.032216955 -0.09219702 -0.17765847 -0.2543466
-0.113919646 -0.028084721 -0.03803319 -0.3024135 -0.34694543 -0.15676506 0.024816386 -0.24735531
-0.18173791 -0.09058143 -0.03153818 -0.25416744 -0.09538161 -0.10768411 -0.24780326 -0.16611864
-0.14432651 -0.13802539 -0.058117718 -0.21666162 -0.26366764 -0.26726595 -0.38590693 -0.26405412
-0.0986098 -0.2737127 -0.38068125 -0.16656275 0.007899757 -0.23883379 -0.35083848 -0.26272395
-0.17991741 -0.06905641 -0.061050355 -0.1713814 -0.352319 -0.1240693 -0.029436337 -0.024984919
-0.08989429 -0.17098957 -0.3047911 -0.14432733 -0.013168834 -0.103811614 0.035646886 -0.23782396
0.04322731 -0.34681594 -0.09372132 -0.046666306 -0.21924214 -0.2425081 -0.049406387 -0.34112903
-0.23482075 -0.37277514 -0.21329139 -0.036399566 -0.1956264 -0.051673096 -0.2111958 -0.23200053
-0.12544245 -0.39149103 -0.25946915 -0.12110169 -0.22740576 -0.3242316 -0.32486606 -0.051728096
0.014361681 -0.05188106 -0.08060652 -0.035468962 -0.16341107 -0.20940918 -0.3233196 -0.06317727
-0.3470679 -0.097837396 -0.1726965 -0.2796974 -0.18410373 -0.2477038 0.074817225 -0.054188427
-0.13172954 -0.028178584 -0.11408521 -0.25537747 -0.15757547 -0.13902585 -0.07550653 -0.09606734
-0.2372572 -0.311329 -0.2542956 -0.21854222 -0.08297749 -0.34193543 -0.22312754 -0.35937396
0.07417621 -0.28697857 -0.21339364 0.06403999 -0.31608683 -0.27207002 -0.16986524 -0.24057747
0.013915798 -0.3667264 -0.023779461 -0.17648529 -0.17745969 -0.18363641 -0.24440685 -0.17783506
-0.22190061 -0.2395831 -0.2363802 0.03969211 -0.21851571 -0.24243532 -0.3325831 -0.18274258
-0.22358797 0.028602267 -0.31544572 -0.1643055 -0.13172843 -0.15087692 -0.055343315 0.0070813284
-0.27857864 -0.033323336 -0.18639706 -0.27193424 -0.29703695 -0.029501421 -0.31008792 -0.091311514

fc1.weight f4 [64, 3072]
00000000: 1222 e83d 924e 673e 8aff 71be d216 9c3e
00000010: 749a 753d feec 483e 547c 6cbe ae33 ee3c
00000020: 6a41 87be 25b7 6b3d 5c45 023f 096d 3dbe
00000030: b57f e93b 23b9 c9bc 89c3 1ebd 8257 b4bd
00000040: a503 bcbc dc0f b83d 98fe a7be 3191 703d
00000050: f63e c53e 958f 723d 887e 093d d728 5f3e
00000060: 7765 033d 49f2 71bd ab19 a23c 03a4 8fbc
00000070: c5a9 8f3c bff5 7cbd c7fc 653e d82a 6cbd
00000080: 82ac a9be c11e cdbd 73cc 9f3e d943 f6be
00000090: 1b82 e6bc c654 d1bd 195f e5bc eaa3 6b3d
000000a0: f9c5 563e 526a 7dbd 0c5d 0fbe ffe6 71be
000000b0: 630e 6b3e 5b3d 02bd 3f00 eebd 0b6d 993e
000000c0: 65db cb3e d843 093e 4d19 06bf dd71 603e
000000d0: cd2c ec3d cfd9 d33e 055f 03bd dffb 053d
000000e0: 0587 e4be cd82 6a3e edfc 583e c3bc 9abe
000000f0: 9743 bbbe 8eb5 bebc f9de 47be d471 923c
00000100: 0207 463d dc58 b9bd 61aa a23e a498 553d
00000110: fcd4 543e 28eb cdbc 553d d4be 21eb 043f
00000120: b817 2cbd 0348 2bbe 4597 3b3d d7dd ea3e
00000130: 55d5 0c3e 6b22 063e f440 2fbf 0cb3 923d
00000140: 54c1 833d 9b1d b83d 8de1 573e eab6 a83e
00000150: 3b0c 063d bcad 8ebb d272 12bd 1576 763d
00000160: 0d1e f43d dac2 fdbc d32b 4e3d 148f cd3e
00000170: 6918 863d 1d0d b1be a4ab 20be 6ca5 a1bd
00000180: 0719 3b3d 299d b53c 6527 933b f2b1 df3d
00000190: 40d8 913d 626a 183d 5c59 033d cfe3 bd3b
000001a0: ceb2 b53c 7306 603d 1977 413c a7ca 173c
000001b0: 60c6 873d 213c b33c ba04 ff3c 5a06 003e
000001c0: 6115 833d a446 893d 6783 383d 249c bfbe
000001d0: 48f9 623e bbd4 063e 6b4f 0b3f d0de a8be
000001e0: ba69 593c cb21 1f3d a3f9 58bd ceb5 32bd
000001f0: 6dff 373c 833a 5ebc 0ff4 bcbb bbf2 92bd
00000200: 55a9 3d3d 39c8 15bd 6e69 d5bc 0f39 8c3c
00000210: 5123 4dbd 1e04 a9bc 45d8 8ebc 78cd ab3c
00000220: 69cd 5cbb 2cfc c13c bf8e 1c3d 6e36 a6be
00000230: 2d56 f2bd ad6c 823e b541 30bd 380b bfbc
00000240: 27c6 e83c 063f b63c 07de 6b3d 1a01 763d
00000250: ba2b e43c 65b4 3abc 5e21 7c3d 2b9d 39be
00000260: 961a 143d ec41 e53b 0486 4b3e c689 113e
00000270: 4cf8 99be 4d06 0bbe 6e33 013d ea76 3a3e
00000280: 4bb2 483d cd74 06be 9b43 433a cfb1 96bb
00000290: 494a 4dbd cff7 9dbc 27c1 8d3c 1716 8ebc
000002a0: 7e75 c23c 3152 083e 728c 103e e39e 013e
000002b0: 9adb 33be 5d1c 3abd 3b8e 6a3c 9c8c 7d3e
000002c0: c558 74be 95ee ed3d bd0a 553c 50cd 273e
000002d0: 366f 8a3c 1f4e 783e 2892 06be 35ec 83be
000002e0: 4535 54be e563 543e 4db8 293d 9568 66be
000002f0: 5da0 043e 15f5 a13d f063 a43c 6f2e 4c3e
00000300: 6f30 b13e fb30 81be d3c7 cdbc 16b2 b6bd
00000310: a53e 7f3e 777f 4f3e d43e f7bd 0ca1 2cbd
00000320: 82f0 703c 6706 f13d e188 3ebe 7572 893d
00000330: 223e b4be de2d 89bd 19ca 6c3e 2bb6 01be
00000340: 5065 d8be fe3d cb3e 47ab fcbd 8c64 d83c
00000350: b250 8e3d b297 a73e 3347 a93c 557f fe3d
00000360: a4d9 043e 802b bcbe c02a db3d d5a4 33bd
00000370: 9ac1 2bbe edd6 ec3e 8db8 eebc a44e 773b
00000380: c698 93bd 9bde c8bc 56be a3bc d0d4 5c3d
00000390: d7a1 50bd 3744 073e 5b66 20be 01fb 0c3e
000003a0: df26 b93d 20e1 75bd c4a3 a33b d149 d63d
000003b0: d078 1a3c 7487 853d 1c21 1d3e d19b 063e
000003c0: 52d0 ddbd d4b5 0d3f 03c7 a63d 34b6 393e
000003d0: d106 cabd 37f8 fa3d e2a8 fbbd b83b d73e
000003e0: 7d11 e63e 2428 35be f112 7f3c b8a1 073f
000003f0: 547a 5bbe 4bf9 1c3e a8c1 b7bd 7cb0 8a3e
0.113346234 0.22588566 -0.23632637 0.3048616 0.05996175 0.19621655 -0.23094302 0.029077377
-0.26417094 0.057547707 0.50887084 -0.18498625 0.0071258196 -0.024624413 -0.038760696 -0.08805753
-0.022950957 0.089874 -0.32811427 0.058732215 0.38524598 0.05921896 0.033567935 0.21792923
0.032079186 -0.05906895 0.01978763 -0.017534262 0.017537007 -0.0617578 0.22459708 -0.057658046
-0.33139426 -0.100156315 0.3121067 -0.4809864 -0.028138211 -0.102212474 -0.027999448 0.057529368
0.20973958 -0.061868973 -0.14000338 -0.23623274 0.22954707 -0.031796794 -0.11621141 0.29966006
0.39815822 0.13404787 -0.52382356 0.21918435 0.115319826 0.41377112 -0.03207304 0.032710906
-0.44634262 0.22901459 0.21190234 -0.3022214 -0.36575004 -0.023279931 -0.19518651 0.017876543
0.048346527 -0.09050152 0.31770614 0.052147523 0.20784372 -0.025136545 -0.41453043 0.5192128
-0.042014807 -0.16726689 0.04579856 0.45872375 0.13753255 0.13099067 -0.68458486 0.07163057
0.06433359 0.08990022 0.21082135 0.32952052 0.032726508 -0.004354207 -0.035754032 0.060171206
0.11919794 -0.030976702 0.050334763 0.40148222 0.065476246 -0.34580317 -0.15690476 -0.0789288
0.045678165 0.022169666 0.00449078 0.10922612 0.071213245 0.03721083 0.03206764 0.005794979
0.022179987 0.05469365 0.01180818 0.009264625 0.06629634 0.021879258 0.031130183 0.12502423
0.06400562 0.06702927 0.04504719 -0.37423813 0.22165406 0.13167088 0.5441806 -0.32982492
0.013269836 0.038850587 -0.052972447 -0.043630414 0.011230332 -0.013563755 -0.0057663987 -0.071752034
0.046304066 -0.0365679 -0.02605125 0.017117051 -0.05008251 -0.020631846 -0.01743711 0.020971999
-0.003369177 0.023679815 0.03822207 -0.32463402 -0.11832843 0.25473538 -0.043031413 -0.02332078
0.028414799 0.022246849 0.05758479 0.060059644 0.027852882 -0.0113955485 0.06155526 -0.18126361
0.036158167 0.006996384 0.19875342 0.14212713 -0.30072248 -0.13576622 0.031543188 0.18209425
0.04899816 -0.13130493 0.00074487337 -0.004598833 -0.050119672 -0.019283203 0.017304016 -0.017344518
0.023737665 0.13312604 0.14116076 0.12658267 -0.1756424 -0.045437206 0.014316137 0.2476067
-0.23861988 0.116177715 0.0130030485 0.16386914 0.016898733 0.24248551 -0.13141692 -0.2576615
-0.20723446 0.20741232 0.04143553 -0.22500832 0.12951799 0.07908074 0.020067185 0.19939588
0.34607264 -0.25232682 -0.025119698 -0.08920686 0.2492624 0.20263468 -0.120725304 -0.042145774
0.014705779 0.11768799 -0.18606903 0.06711284 -0.35203654 -0.066982016 0.23123969 -0.12667148
-0.42264795 0.39695734 -0.12337356 0.026415132 0.06948985 0.32732922 0.020663833 0.124266304
0.12973648 -0.36751938 0.10701513 -0.043858368 -0.16773072 0.46257725 -0.029140735 0.0037736082
-0.072068736 -0.024520209 -0.01998822 0.05391389 -0.050935593 0.13209616 -0.15664046 0.13767625
0.09040617 -0.06002915 0.0049938876 0.10463298 0.009428218 0.06519976 0.15344661 0.13145377
-0.108307496 0.5535557 0.08143427 0.18135911 -0.098645814 0.122543745 -0.12288071 0.4203775
0.44935217 -0.17691094 0.015568481 0.5298114 -0.21433383 0.15329473 -0.08972484 0.27087772

fc1.bias f4 [64]
00000000: 1a62 62be c16c 94be f02b 8bbd 8111 5c3e
00000010: 9d70 1dbd fc0e 4fbd a27e 7fbd f7c2 a8bd
00000020: 3099 79be 46a4 8fbe a032 46bd ad15 b1bd
00000030: a0c6 9fbe abbc 3abd 753f 9ebd 2e66 80bd
00000040: 589b 82bd 5dbf 83bd ebc2 82bd e797 48bd
00000050: 83ee 34bd 2e19 13be 5b73 95bd 352b 94bc
00000060: bb88 91bd f16a 37be 5faf 76bd 62b4 8abd
00000070: 1163 63bd 0c3e 9ebd 1be6 8ebd 8264 77bd
00000080: 4cf8 5bbe 1fa9 71bd d3cb 94bd 2637 65be
00000090: b429 43be d16b 63bd 4316 61bd 7f15 37bd
000000a0: 6d5d 7fbd d0e9 47bd a383 8fbd 3f77 21be
000000b0: c9c4 8abe 9482 85bd 0135 0bbd f808 58bd
000000c0: 84a5 6fbe f208 673d d6d0 17bd 3d64 cabc
000000d0: 7bea 63bd c719 71bd 17d9 1abe 02ac 7cbd
000000e0: 48db 82bd 59b7 92bd 7abc 8dbd e91f 9bbd
000000f0: bd8a 57bd 5a15 75bd 9b89 adbb 563b 8abd
-0.22107735 -0.28989223 -0.0679549 0.21491052 -0.038437475 -0.0505514 -0.062376626 -0.082403116
-0.24374843 -0.28055018 -0.048388124 -0.086467125 -0.31206226 -0.045590084 -0.07726947 -0.06269489
-0.06377286 -0.06432984 -0.06384834 -0.04897299 -0.044172775 -0.14365074 -0.07297393 -0.018087009
-0.071061574 -0.17911889 -0.06022584 -0.067726865 -0.0555144 -0.07726678 -0.06977483 -0.060398586
-0.21481436 -0.058999177 -0.07265439 -0.22384319 -0.19058877 -0.055522744 -0.05495287 -0.044698235
-0.062344957 -0.048806965 -0.070075296 -0.15768145 -0.2710326 -0.065190464 -0.033986095 -0.05274293
-0.23402983 0.056405015 -0.037064396 -0.024706 -0.05564354 -0.058862474 -0.15121876 -0.061687477
-0.06389481 -0.07163877 -0.06920715 -0.07574446 -0.052622546 -0.059834816 -0.005295945 -0.06749599

fc2.weight f4 [32, 64]
00000000: 9667 31bd 197a 03be 7017 913c d72b 71bd
00000010: 6a79 233d de33 75bd 4c2c c2bc 149c 2cbd
00000020: b809 243d 528e f7bd c8c2 bc3c 7cd9 06be
00000030: 95e1 8abd 6d4d 143c d63e aebd 084a 543d
00000040: d4c9 2e3c 019f 3abe 585f cabd 5e47 abbd
00000050: a89b 05be 7ff0 aebd 1e34 c33c 46ec 36be
00000060: f006 e53d 8ebc b1bd ac21 acbc 0ae2 30be
00000070: 9bfe 4dbc af7e 71bd 0e78 cbbd 6370 a3bd
00000080: 18b7 4cbe 19ee 023d 2fbf 2cbd 3009 123d
00000090: 979c 07bd 0af6 fb3d 10a3 94bc b598 95bd
000000a0: ee29 5fbc 8050 f6ba f64b ba3d 0320 b8bd
000000b0: 2e11 0bbe 0bfd 733d f4a6 ddbd 902b 5fbc
000000c0: 43e5 9abd fa91 91bc 90d5 723c 5507 3bbe
000000d0: 8a99 f9bd afc4 1f3d 0d43 d0bd 063c 32bd
000000e0: 53e3 273d 51b1 743d fc5a 533d a52d b9bd
000000f0: 1fe3 f5bd 854b 2a3d 427d 9cbd 5f1d 513d
00000100: 32c1 923d da51 b63d 598f 843c ace3 80be
00000110: f29c 4bbd 774b a53d 0b80 223e 6896 1bbe
00000120: 385e f83c 2026 df3b ca30 043e 2d58 97bd
00000130: 35a3 e1bc 2a6a 243e 9699 f33d c09b fbbd
00000140: 0ef1 25bc e4f4 caba eb50 30bd f928 31bd
00000150: b5da 463d e2b3 0e3c 8463 ac3d 2d79 8c3d
00000160: c5c2 333d 6b99 6e3e e20b ae3d 8126 c43c
00000170: bdb1 1cbd c9f6 09be 34ca a2bc c897 d93d
00000180: 3f93 263d 6498 0c3e c6ad 0c3e edb8 58be
00000190: 1912 e1bd de65 9e3d 73a3 77bd d57c 91bc
000001a0: 1212 e1bc c0ad 393d d4f0 d7bc ba5b 233d
000001b0: acbf 503d e694 2c3e d8b7 833d f80c 05bd
000001c0: cd64 b4bc 74bb d5bd f7ff 0abe f315 c0bc
000001d0: 16e6 b33d a9d7 fcbd 03e9 aa3d 6e2d 6abd
000001e0: 8032 0cbd 2c1f cd3a 25a7 d33c edcd fd3d
000001f0: 1a02 c13d bbc3 323e 93eb 093c c566 04be
00000200: b57d a03d 529e b7ba d69c fb3d 519c 8abe
00000210: 1b9a ddbd b6e4 dabc e2f6 263d d775 3bbc
00000220: be69 363e 245e 633e a506 c7bd f5a9 023d
00000230: 4ff5 363e f14d 22be 5327 6cbc 0bfd 2b3c
00000240: 7938 68bd 27e9 fdbc 53c6 573d 2fe1 23bd
00000250: f331 82bd 1cc3 3dbd d236 5a3d f418 b7bb
00000260: 9113 9dbd 3d8f 843d 21ab a53c 01bd c1bb
00000270: 4dba 8fbd 4641 ba3c 1cb4 4bbd cc8a 38be
00000280: 9c40 6a3d 6d15 9e3c d738 18be cc15 783e
00000290: 6c05 013e 45db eabd 3a6d 383d d0ce 30be
000002a0: df56 73bd 8e3c e6bd 5cc9 f0bd 0b4d 2d3d
000002b0: 6e64 423e 199a 383e 3dfd f03c 23b6 dcbc
000002c0: 8a2a 843e 37a3 dcbd a02f 1f3d 09a5 86bd
000002d0: ac00 0f3d 40f6 ef3d 19d8 a93d 1390 063e
000002e0: bf57 02bd 79a3 d33d 7bfd fd3d 122b 3bbe
000002f0: d9d8 de3d cd7f 533d c23d d5bc a98a 00be
00000300: fb67 9e39 110f 06be 75c6 eebd 10bf 4fbd
00000310: 02c5 e8bb 4c28 cebd 681f 77bd e1d3 efbd
00000320: 9892 13be 6a22 d6bd 24d5 31bd 0473 813d
00000330: 43e7 e0bc 63b9 eebd 0216 c2bd 0658 863d
00000340: 2079 6b3c a241 c1bd 8342 813d 18a6 25bd
00000350: 5d75 553c 5493 9fbd bc49 ec3c 82a2 dd3c
00000360: 96f6 ccbd fefc fabd bd32 b43d c0d7 263c
00000370: c5ed 7bbd fd59 de3d e28c 373e 9fe4 b43d
00000380: 02a9 babd ccc2 993d 4e52 1c3e 8090 ddbb
00000390: 093e efbd 92ad a1bd 9125 8f3d 3996 1f3e
000003a0: 1221 033e 0c45 a53d 4896 963c b103 083d
000003b0: e436 7bbc 5d0a 68bd e62c e0bd 0536 893d
000003c0: 6746 b0bd 0a97 0dbe 68e5 92bc c2ef 183d
000003d0: b1b1 263d d8fb e63b 7ca9 163a 9a4e 07be
000003e0: cfc7 613d bf95 af3a baaf c0bd 6b21 bd3d
000003f0: f5d7 78bc 8e1c 83bc 3919 203c 4dbc 57bd
-0.043311678 -0.12839545 0.017711371 -0.0588797 0.03991071 -0.059863918 -0.023702763 -0.042141035
0.04004833 -0.12087692 0.023042098 -0.13168901 -0.067813076 0.009051663 -0.08508079 0.051828414
0.010668237 -0.18224718 -0.098814666 -0.083632216 -0.1304766 -0.08541965 0.023828562 -0.17863569
0.11182964 -0.08678542 -0.02101215 -0.17273727 -0.01257291 -0.058958706 -0.09935008 -0.079804204
-0.1999172 0.03196535 -0.042174514 0.035653293 -0.03310832 0.123027876 -0.01814416 -0.07304517
-0.013620837 -0.0018792301 0.0909652 -0.08990481 -0.13580772 0.059567492 -0.108228594 -0.013621226
-0.075632595 -0.017769802 0.014821425 -0.18264516 -0.121874884 0.03900593 -0.10169039 -0.043514274
0.040988278 0.059739415 0.05160044 -0.09041909 -0.120062105 0.041575927 -0.076410785 0.0510534
0.07165755 0.08902331 0.016181635 -0.251737 -0.04971022 0.080710344 0.15869157 -0.15194094
0.030318365 0.006809965 0.12909237 -0.07389865 -0.027543643 0.16056123 0.118945286 -0.12285566
-0.010128273 -0.001548436 -0.04304592 -0.043251965 0.04854842 0.00870988 0.084174186 0.0685905
0.04388692 0.23300712 0.0849836 0.023944141 -0.038255442 -0.13473047 -0.019871809 0.10624653
0.04066777 0.13730007 0.13738164 -0.21164294 -0.1098978 0.077342734 -0.06045861 -0.01775972
-0.027474437 0.045331717 -0.026359953 0.0398824 0.050964043 0.16853675 0.0643155 -0.03248307
-0.022020722 -0.104361445 -0.13574205 -0.023447966 0.0878412 -0.123458214 0.08345225 -0.05717223
-0.034227848 0.0015649549 0.025836537 0.12392793 0.09424229 0.17457478 0.008417982 -0.12929828
0.07836477 -0.0014008975 0.122857735 -0.27072385 -0.10820409 -0.026720386 0.04076279 -0.011441669
0.17813775 0.2220388 -0.09718064 0.031900365 0.17867015 -0.15850045 -0.0144136725 0.010497342
-0.05669448 -0.030994965 0.05267937 -0.040009674 -0.06357183 -0.04632865 0.053274937 -0.0055876914
-0.076697476 0.06472633 0.020223202 -0.0059124236 -0.07017956 0.022736203 -0.049732313 -0.18021697
0.057190523 0.019297326 -0.14865433 0.24227065 0.12599725 -0.114676036 0.04502604 -0.17266393
-0.05940902 -0.11242019 -0.11757156 0.042309802 0.18983623 0.18027534 0.029417628 -0.026942318
0.25813705 -0.10773318 0.038863778 -0.06574447 0.03491275 0.1171689 0.082931705 0.13140897
-0.031821962 0.10333914 0.12401863 -0.18278149 0.10881204 0.051635552 -0.026030425 -0.12552895
0.0003021358 -0.13091685 -0.116589464 -0.05071932 -0.0071035633 -0.1006628 -0.060332686 -0.117103346
-0.1441139 -0.10455783 -0.043416157 0.063207656 -0.027454024 -0.116564535 -0.09476854 0.06559758
0.01437214 -0.094363466 0.06311514 -0.040441602 0.01302847 -0.077917725 0.028843753 0.027055029
-0.1000797 -0.12255286 0.0879874 0.010183275 -0.06150605 0.10857008 0.17924836 0.088326685
-0.09114267 0.07507858 0.15265772 -0.0067616105 -0.11681754 -0.07894434 0.06989587 0.15584649
0.12805584 0.0806981 0.018382207 0.033206645 -0.015332911 -0.05665051 -0.10946064 0.066997565
-0.08607178 -0.13827148 -0.017931655 0.037338026 0.040696803 0.007049065 0.0005747301 -0.13213578
0.055122193 0.0013396068 -0.09408517 0.092348896 -0.015188207 -0.016004827 0.009771639 -0.052669812

fc2.bias f4 [32]
00000000: 9599 743d 9706 b63d 86b8 80be a69b bc3d
00000010: 6b45 11be 4443 95be 0ee0 f93d 8ce0 74be
00000020: 1236 debd 0603 2fbe e23d 22bd 6c04 963e
00000030: 5893 b0bc b860 a1bd c090 dd3c 9609 003f
00000040: e240 f93e 6b36 713c 95b9 6bbd 4d2a 05be
00000050: d234 d1be 4833 0d3d 135f 20be 08ea d7bd
00000060: 1837 a13e 952d 8ebe 756b 0dbe e510 a1bb
00000070: 6afd 93bd 5e2a 4dbe dc5f c0be 1f0e 57be
0.05971678 0.08887976 -0.2514078 0.09209375 -0.14186637 -0.29152882 0.12200938 -0.23913783
-0.10850157 -0.17090997 -0.039609797 0.2930025 -0.021554634 -0.07879776 0.027046561 0.50014627
0.48682314 0.014722447 -0.05755003 -0.13004418 -0.4086061 0.034472734 -0.15661268 -0.10542685
0.31487346 -0.2776915 -0.13810523 -0.004915344 -0.07226069 -0.20035693 -0.37573135 -0.2100148

fc3.weight f4 [32, 32]
00000000: a733 29be dc00 91bd ed8d 15be d1e4 533c
00000010: 8f37 573d 641d 73be d0d4 29be 4001 c83b
00000020: cc99 363d 3a79 31be 4ee5 35be c666 f6bd
00000030: 3a95 3f3c b03e ee3c eb45 b1bd da53 45be
00000040: f4de c7bd fef0 febd 6def 923d b592 1c3a
00000050: 61ba 8e3d d8cc 7cbd bbee 5e3d 5e0d dfbd
00000060: 3155 6c3c 1577 0ebe 8808 c9bd 5a37 f73d
00000070: a833 18be 92b0 d73d a435 823d 1068 48be
00000080: 96a3 f83d 5fc7 22bd 0217 d1bb a9dd 8fbd
00000090: f45b 3f3c 0e17 dabd 38b5 b8bd b763 193e
000000a0: 33b6 42be eb59 b2bd 80be 34bd 3430 b3bd
000000b0: c855 a9bd a0e6 87bc c76c 8d3d d6f0 ae3d
000000c0: 803e 90be b825 603d a78e 6d3d 9cc9 d5bb
000000d0: 93b0 b1bd 5af1 cd3b 8dfd 3dbe f75e 3a3e
000000e0: 0491 6ebe 999a 55bd 4d6f 15bd 068c 1e3e
000000f0: 4055 c73b ea90 d2bd 98f2 60bd ccf3 503d
00000100: ee7f ab3d 6433 d2bd b012 8f3e 0538 5f3e
00000110: 0487 253a 8687 9f3d 5a05 bfbd 0054 04bc
00000120: b448 2d3d 2c88 343b 43d1 7fbe 7755 1b3d
00000130: 5b0f 42bd 9077 ff3c 2412 1bbe 3f13 42be
00000140: b563 b5be 0823 8b3d a66d 083e 5bb4 1c3c
00000150: de88 3f3e dc8a 0c3e edb4 b73d 22f1 acbc
00000160: b3b6 9ebd dd80 fdbd af90 5bbe 6203 44bd
00000170: df8d b83d 2022 883d 3648 4b3e 4ea9 d03d
00000180: fce6 823c 31c4 3a3e 2b67 923e f488 1d3c
00000190: a8d1 673d f043 b33d 7ab9 913e c97e 5b3d
000001a0: e6ac 69bd 8b8d 593d 2bfa 843d fae9 b0bc
000001b0: a351 95bb e6ee a6bd 91d0 a53d bba0 8e3e
000001c0: 35e3 c1bc d6ce dcbd ed42 243e d20a 383e
000001d0: db7b f03d 0130 283d 824a c8bb b7a6 503d
000001e0: d783 3fbe f62a b8bd f064 de3d e300 cebd
000001f0: c214 5bbd c870 c93d c354 2dbd 3ef3 4a3d
00000200: 2b40 1d3e 5c36 febc 44c7 753d 8f27 e6bd
00000210: bcd9 43be 4117 273e 1b9e 5c3e be20 31bc
00000220: 3df6 6e3d 2d8a d2bd ce6d d43c 736d 29be
00000230: dbb4 4d3e b3f6 1b3e a88c 1fbe 97cd ca3e
00000240: 8711 383d 44cf 243c 6874 f43d f99e a13e
00000250: b9e5 72bd ae94 dd3d 5358 8d3e ed34 03be
00000260: 4e5a 01be 1d65 2d3d 9605 243e 4e42 0fbd
00000270: 94d5 99bd 3d8b 543d 7d58 273e df01 7abe
00000280: 5864 22be a8f8 edbc bf47 6abe def7 ff3c
00000290: 8523 333e 1b7d 6abe 7c10 4fbe f054 173d
000002a0: d273 973d 80a9 98bb fc4d 243d b130 20be
000002b0: aa80 d43c 60fe 71bd 529b 06be a7cf 343c
000002c0: ec32 19bd 90ab e4bc 9977 afbd 7e72 dc3d
000002d0: b75b 3fbc 18f6 4fbd 581a 2fbd 8d77 1cbe
000002e0: a62b 9dbd a945 fb3d 7050 53bc 5eec f8bc
000002f0: 3550 95bd 00f0 44bc 6021 5abe cb7c e83b
00000300: 6d9f 43bd 6eab 353d b845 713e 4936 c7bd
00000310: 99c5 03be ca14 183e ec00 983a 3027 063e
00000320: 4b32 eebd c4df 113e b647 6abe 94f5 b93e
00000330: a7c3 b53d 6b7d 6e3d 0804 16bd 20cd 4abe
00000340: 7762 bfbb 40c7 193e 6535 483e d240 18be
00000350: 0bc6 b23e ef82 f13c 7374 383e af44 903c
00000360: ed9f 6d3e e22a e13e 13cd 9fbd de71 033d
00000370: 17b8 f8bd ad26 043e ca80 ae3e e50b a93e
00000380: 3a36 ccbd 7d0a d83d 2849 13be aa61 2ebe
00000390: fcf0 8a3e 8fda d9bd 4369 593e 9413 12be
000003a0: ac40 0f3e 4851 493d 25b5 cabd 4b22 883d
000003b0: eed0 0abe 05f7 903c 003e a9bd 7373 bc3e
000003c0: 04ca c93e bcf2 5c3e 65ae 44be 2400 813c
000003d0: c01d 8bbe 7507 8bba 6975 ce3c ff13 04be
000003e0: 4b2f 983e 3abb bebd d0e1 5dbd e858 8a3d
000003f0: dd72 003e d5f9 0d3e ba9a 88be 902f 89be
-0.1652361 -0.07080242 -0.14604922 0.012932972 0.05254322 -0.2374168 -0.16585088 0.0061036646
0.044580266 -0.173314 -0.17763254 -0.12031321 0.011693293 0.029082626 -0.08655914 -0.19270268
-0.09759322 -0.12448309 0.07174573 0.0005972789 0.06969143 -0.06171879 0.05442689 -0.108912215
0.014424608 -0.13912614 -0.0981608 0.12071104 -0.14863455 0.10531725 0.063578874 -0.19570947
0.121405765 -0.039740916 -0.0063809166 -0.070247 0.011679638 -0.106489286 -0.0901894 0.14979444
-0.19014816 -0.08708557 -0.044126987 -0.087494284 -0.082683146 -0.016589463 0.06905513 0.085420296
-0.28172684 0.05472347 0.057997372 -0.006524278 -0.08676257 0.006284875 -0.18553753 0.18200289
-0.23297507 -0.05214939 -0.036483098 0.15483102 0.0060831606 -0.102815464 -0.054918855 0.051013753
0.0837401 -0.10263708 0.27943945 0.21798714 0.00063143694 0.07789521 -0.093271926 -0.008076668
0.042305663 0.0027546985 -0.24982171 0.037923303 -0.047377925 0.031184942 -0.15143639 -0.18952654
-0.35427633 0.06793791 0.13323078 0.0095644845 0.18704554 0.13724846 0.08970056 -0.021111075
-0.07749691 -0.12378094 -0.21441911 -0.04785479 0.09011435 0.06647134 0.19851765 0.10188542
0.015979283 0.18238904 0.28594336 0.009615172 0.05659643 0.087531924 0.2846182 0.05358771
-0.057049654 0.0531135 0.06493028 -0.021595944 -0.004556851 -0.08151035 0.080964215 0.27857003
-0.023667911 -0.10781638 0.16041155 0.17972878 0.117423736 0.041061405 -0.0061123976 0.05094024
-0.18702637 -0.08992569 0.10859096 -0.10058763 -0.053486593 0.098359644 -0.042317163 0.04954838
0.1535651 -0.03103178 0.060004488 -0.11238014 -0.19126028 0.16317464 0.21544687 -0.010811029
0.0583403 -0.10280261 0.025931265 -0.16545658 0.20088522 0.15230827 -0.15581 0.39609978
0.04493859 0.010059182 0.11936265 0.315666 -0.05930111 0.10819374 0.2760645 -0.12813158
-0.12632105 0.042332757 0.16017756 -0.034975342 -0.0751144 0.0518906 0.1634235 -0.24414776
-0.1585859 -0.029049233 -0.22878931 0.031246122 0.17494018 -0.22899286 -0.20221132 0.036946237
0.07395138 -0.004658878 0.040113434 -0.15643574 0.025940258 -0.05908048 -0.13145187 0.011035836
-0.03740208 -0.027913839 -0.08567733 0.10764025 -0.011679581 -0.050771803 -0.042749733 -0.1527998
-0.07674341 0.12269146 -0.012897596 -0.030386146 -0.07290689 -0.012020111 -0.21301794 0.0070949546
-0.047759462 0.04435294 0.23561752 -0.09727151 -0.12868346 0.1485168 0.0011596954 0.13100886
-0.11630686 0.14245516 -0.22878918 0.36320174 0.08875208 0.058225077 -0.03662494 -0.19804811
-0.0058405953 0.15017414 0.19551618 -0.14868477 0.3491672 0.02948138 0.18013172 0.017610876
0.23205538 0.4397803 -0.07802787 0.032091014 -0.12144487 0.12905379 0.34082633 0.33016887
-0.099712804 0.105488755 -0.14383376 -0.17029443 0.2713698 -0.1063739 0.2123156 -0.14265281
0.13989514 0.04914978 -0.09897832 0.06647166 -0.13556263 0.017695913 -0.08263779 0.3680683
0.39411938 0.21576971 -0.19207151 0.015747137 -0.27171135 -0.0010607081 0.02520247 -0.12898253
0.29723582 -0.093130544 -0.05417043 0.06755239 0.12543817 0.13864835 -0.26680547 -0.267941

fc3.bias f4 [32]
00000000: 5e8c 2abd 9ae0 81be 9b42 95be cdd1 babd
00000010: baf3 203d 3d14 0abe c94e 63be 7ed9 583f
00000020: 507b 943e d5ec 29be 1a0c 693d d9b5 04be
00000030: d541 2dbe f90b 0ebe 861a cc3d 227e 96be
00000040: 5b6e 2cbe a718 cf3d e6af 10be 4e61 67be
00000050: 8408 f13e d78c 91be 9249 76bd 9e03 bb3e
00000060: 86fd 97bd b0b8 79bc c77b 56be e33e 4fbe
00000070: 9e3a 7ebe 1de3 da3e dac6 adbe 2938 003f
-0.04163777 -0.2536667 -0.29152378 -0.091220476 0.039294936 -0.13484283 -0.22198023 0.84706867
0.2900033 -0.1659425 0.056896307 -0.12959994 -0.16919644 -0.13871755 0.099659964 -0.29393107
-0.16838972 0.10112124 -0.141296 -0.22595713 0.4707681 -0.28427765 -0.060128756 0.36526197
-0.07421403 -0.015241787 -0.20945655 -0.20238833 -0.24827048 0.427514 -0.33940774 0.50085694

fc4.weight f4 [5, 32]
00000000: ad02 f3bd c7eb 903d d210 67be 1e10 8dbe
00000010: 0ffc b0be 075c 6abe 49eb e0be 04ab ccbe
00000020: ba52 66be 6dab 1bbe b231 973d 4aa4 95bd
00000030: 32a9 f13d b3e9 32be fb3e 29be 2c01 2fbf
00000040: fa43 fdbe 22d1 19be 73c8 04bf a508 2fbe
00000050: 5d3d adbf 73b7 a3be 5068 58be 4c3b 81bf
00000060: 7a39 00be ecdd dd3d f101 e7bd 0821 93bd
00000070: 5442 52be ebec 11be a114 c8be f2ca 00be
00000080: 2ca2 35bc c7cb 683c 94dd 1d3e b56e 303e
00000090: 31ef d73d e3ec 9d3d f883 d83d 55b6 a4be
000000a0: accf 4bbe 8cd7 76bd 5d85 683e a9cf 003e
000000b0: 286d 2d3d dfc2 59be 546f 80bc 4746 263e
000000c0: edc0 633e 4212 ca3d adcc 0b3e dbc8 71be
000000d0: 8ea7 83be b167 3d3d 5b62 e9bd 08bd 87be
000000e0: 1069 d8bc 6f39 ca3d 16ec ae3d 7e7e 75bd
000000f0: e811 f9bd 5983 71be 0046 6c3d a931 85bc
00000100: 5aae 31be ac12 133d c93c bdbc 860b b63d
00000110: 8402 1d3e 48a7 38bd 220e b7bd 2a42 363e
00000120: cc1e c3be 40e0 b73b 5168 babd 9551 debd
00000130: 82c8 0b3d c63b be3c 7224 543d b0ed e9ba
00000140: 70ae cf3d 69d6 833d d8f4 cc3d a1f1 91bd
00000150: 7965 6e3d db9a 343d ef99 333d d5d9 8c3d
00000160: 2a51 a6bd 5a0b 053e 34f6 8d3d fe84 50be
00000170: 62be 023e 8723 0bbc 571e 923c 109f 263e
00000180: efb3 20be 6a9b 00be 1500 a83c 9155 32be
00000190: 176e 61be 5b40 633e 4a8b 423e 6c6b 813d
000001a0: 05f8 8c3d 122a c53d d23c 02bd 68ec 173e
000001b0: 5a1b 02be f59d a63d f976 e5bd 3705 363b
000001c0: 5685 82be d0b5 5dbd cf7e b73d f5ea a1bc
000001d0: 634e 443e 4192 4a3c 7275 56be f994 613e
000001e0: abf3 88bd cc4d d0bd f399 0d3d 428c 303e
000001f0: c628 a93a 6f10 70bd a41e 2c3d 27e6 c8bd
00000200: 07a1 b5bd b7be 40be b280 e7bd c9c4 19be
00000210: 7fc0 cdbe 964a d63d dbbb 78be bec8 c03e
00000220: aca3 bc3e bffd 0fbe a191 ac3d 95d5 a5bd
00000230: c382 2dbe 80bb 353e 9ec3 483d 7c20 cebe
00000240: 7f00 86be 0f3a c43d 2fb1 2bbd 667c a2bc
00000250: ac49 13be 9ca8 053e 56e2 243b 320f 663e
00000260: d23a 9e3d a6f8 083c 3cd4 26be 7d8a 153d
00000270: 2e91 3ebe eff8 d23e 0780 72be e8b7 bc3e
-0.11865745 0.07076221 -0.2256501 -0.2755136 -0.34567305 -0.22886668 -0.43929508 -0.39974225
-0.22492495 -0.15202112 0.073825255 -0.07306726 0.117998496 -0.17471962 -0.16527931 -0.68361163
-0.49465925 -0.15021184 -0.5186836 -0.17093141 -1.3534352 -0.31975898 -0.21133542 -1.0096221
-0.12521926 0.10833344 -0.11279667 -0.071840346 -0.20533115 -0.14250533 -0.3907824 -0.12577417
-0.011086028 0.014208741 0.15416557 0.17229731 0.10543669 0.07711198 0.10572046 -0.32170358
-0.1990344 -0.060264155 0.22707124 0.12579216 0.042340428 -0.21265744 -0.015678085 0.16237746
0.22241564 0.09866764 0.13652296 -0.23611777 -0.25713772 0.046241466 -0.11395713 -0.26511407
-0.026417285 0.09874236 0.085411236 -0.059935085 -0.121616185 -0.23585261 0.057683945 -0.016259031
-0.17351666 0.03590648 -0.023100274 0.08888917 0.15332991 -0.045081407 -0.089382425 0.17798677
-0.38109434 0.0056114495 -0.09101928 -0.10855404 0.034126766 0.023221862 0.05179257 -0.0017847326
0.10140693 0.0643738 0.10007638 -0.07126165 0.05820224 0.044092994 0.043847974 0.06877486
-0.081209496 0.12992612 0.06931725 -0.20363232 0.12767938 -0.008492357 0.017836733 0.16271615
-0.15693639 -0.12559286 0.020507852 -0.17415453 -0.22014652 0.22192518 0.18998447 0.06319317
0.068832435 0.09627165 -0.031796284 0.14836276 -0.12705746 0.08135597 -0.11204333 0.0027774104
-0.25492352 -0.054128468 0.08959734 -0.019765357 0.19170527 0.012363971 -0.2094324 0.22029485
-0.06687101 -0.101710886 0.034570646 0.17241004 0.0012905828 -0.058609422 0.04202141 -0.09809523
-0.08868604 -0.18822752 -0.113038436 -0.15016474 -0.40185925 0.10463445 -0.24290411 0.37653154
0.36843622 -0.1406164 0.08426214 -0.08097378 -0.16944413 0.17747307 0.04901468 -0.4025916
-0.26172253 0.09581386 -0.041917022 -0.019834708 -0.14383572 0.130526 0.002515932 0.22466734
0.07726063 0.008360064 -0.16291898 0.036509026 -0.18610069 0.41205546 -0.23681651 0.3685906

fc4.bias f4 [5]
00000000: bb79 99be 41b9 60be 7e2a c03e 6128 2abd
00000010: c6fc 2c3e
-0.29975685 -0.21945669 0.3753242 -0.041542415 0.168933
